…
yName":"Krishna Chaithanya Movva","userId":"08822814284676895729"}},"outputId":"f547fec3-3c62-487c-f51d-1c6adaa2b473"},"execution_count":23,"outputs":[{"output_type":"stream","name":"stdout","text":["Model: \"model\"\n","_________________________________________________________________\n"," Layer (type)                Output Shape              Param #   \n","=================================================================\n"," input_3 (InputLayer)        [(None, 120, 120, 3)]     0         \n","                                                                 \n"," conv2d (Conv2D)             (None, 120, 120, 16)      208       \n","                                                                 \n"," max_pooling2d (MaxPooling2D  (None, 60, 60, 16)       0         \n"," )                                                               \n","                                                                 \n"," conv2d_1 (Conv2D)           (None, 60, 60, 16)        1040      \n","                                                                 \n"," max_pooling2d_1 (MaxPooling  (None, 30, 30, 16)       0         \n"," 2D)                                                             \n","                                                                 \n"," flatten (Flatten)           (None, 14400)             0         \n","                                                                 \n"," dense (Dense)               (None, 32)                460832    \n","                                                                 \n"," dense_1 (Dense)             (None, 32)                1056      \n","                                                                 \n","=================================================================\n","Total params: 463,136\n","Trainable params: 463,136\n","Non-trainable params: 0\n","_________________________________________________________________\n"]}]}]}